loading dictionary from data/dictionary.pkl
loading features from h5 file
loading features from h5 file
Namespace(batch_size=256, epochs=13, gamma=8, input=None, model='ban', num_hid=1024, op='c', output='saved_models/ban', seed=1204, task='vqa', tfidf=False, unadaptive=True, use_both=False, use_counter=True, use_vg=True)
DataParallel(
  (module): BanModel(
    (q_emb): AlbertModel(
      (embeddings): AlbertEmbeddings(
        (word_embeddings): Embedding(30000, 128, padding_idx=0)
        (position_embeddings): Embedding(512, 128)
        (token_type_embeddings): Embedding(2, 128)
        (LayerNorm): LayerNorm((128,), eps=1e-12, elementwise_affine=True)
        (dropout): Dropout(p=0, inplace=False)
      )
      (encoder): AlbertTransformer(
        (embedding_hidden_mapping_in): Linear(in_features=128, out_features=1024, bias=True)
        (albert_layer_groups): ModuleList(
          (0): AlbertLayerGroup(
            (albert_layers): ModuleList(
              (0): AlbertLayer(
                (full_layer_layer_norm): LayerNorm((1024,), eps=1e-12, elementwise_affine=True)
                (attention): AlbertAttention(
                  (query): Linear(in_features=1024, out_features=1024, bias=True)
                  (key): Linear(in_features=1024, out_features=1024, bias=True)
                  (value): Linear(in_features=1024, out_features=1024, bias=True)
                  (dropout): Dropout(p=0, inplace=False)
                  (dense): Linear(in_features=1024, out_features=1024, bias=True)
                  (LayerNorm): LayerNorm((1024,), eps=1e-12, elementwise_affine=True)
                )
                (ffn): Linear(in_features=1024, out_features=4096, bias=True)
                (ffn_output): Linear(in_features=4096, out_features=1024, bias=True)
              )
            )
          )
        )
      )
      (pooler): Linear(in_features=1024, out_features=1024, bias=True)
      (pooler_activation): Tanh()
    )
    (v_att): BiAttention(
      (logits): BCNet(
        (v_net): FCNet(
          (main): Sequential(
            (0): Dropout(p=0.2, inplace=False)
            (1): Linear(in_features=2048, out_features=3072, bias=True)
            (2): ReLU()
          )
        )
        (q_net): FCNet(
          (main): Sequential(
            (0): Dropout(p=0.2, inplace=False)
            (1): Linear(in_features=1024, out_features=3072, bias=True)
            (2): ReLU()
          )
        )
        (dropout): Dropout(p=0.5, inplace=False)
        (p_net): AvgPool1d(kernel_size=(3,), stride=(3,), padding=(0,))
      )
    )
    (b_net): ModuleList(
      (0): BCNet(
        (v_net): FCNet(
          (main): Sequential(
            (0): Dropout(p=0.2, inplace=False)
            (1): Linear(in_features=2048, out_features=1024, bias=True)
            (2): ReLU()
          )
        )
        (q_net): FCNet(
          (main): Sequential(
            (0): Dropout(p=0.2, inplace=False)
            (1): Linear(in_features=1024, out_features=1024, bias=True)
            (2): ReLU()
          )
        )
        (dropout): Dropout(p=0.5, inplace=False)
      )
      (1): BCNet(
        (v_net): FCNet(
          (main): Sequential(
            (0): Dropout(p=0.2, inplace=False)
            (1): Linear(in_features=2048, out_features=1024, bias=True)
            (2): ReLU()
          )
        )
        (q_net): FCNet(
          (main): Sequential(
            (0): Dropout(p=0.2, inplace=False)
            (1): Linear(in_features=1024, out_features=1024, bias=True)
            (2): ReLU()
          )
        )
        (dropout): Dropout(p=0.5, inplace=False)
      )
      (2): BCNet(
        (v_net): FCNet(
          (main): Sequential(
            (0): Dropout(p=0.2, inplace=False)
            (1): Linear(in_features=2048, out_features=1024, bias=True)
            (2): ReLU()
          )
        )
        (q_net): FCNet(
          (main): Sequential(
            (0): Dropout(p=0.2, inplace=False)
            (1): Linear(in_features=1024, out_features=1024, bias=True)
            (2): ReLU()
          )
        )
        (dropout): Dropout(p=0.5, inplace=False)
      )
      (3): BCNet(
        (v_net): FCNet(
          (main): Sequential(
            (0): Dropout(p=0.2, inplace=False)
            (1): Linear(in_features=2048, out_features=1024, bias=True)
            (2): ReLU()
          )
        )
        (q_net): FCNet(
          (main): Sequential(
            (0): Dropout(p=0.2, inplace=False)
            (1): Linear(in_features=1024, out_features=1024, bias=True)
            (2): ReLU()
          )
        )
        (dropout): Dropout(p=0.5, inplace=False)
      )
      (4): BCNet(
        (v_net): FCNet(
          (main): Sequential(
            (0): Dropout(p=0.2, inplace=False)
            (1): Linear(in_features=2048, out_features=1024, bias=True)
            (2): ReLU()
          )
        )
        (q_net): FCNet(
          (main): Sequential(
            (0): Dropout(p=0.2, inplace=False)
            (1): Linear(in_features=1024, out_features=1024, bias=True)
            (2): ReLU()
          )
        )
        (dropout): Dropout(p=0.5, inplace=False)
      )
      (5): BCNet(
        (v_net): FCNet(
          (main): Sequential(
            (0): Dropout(p=0.2, inplace=False)
            (1): Linear(in_features=2048, out_features=1024, bias=True)
            (2): ReLU()
          )
        )
        (q_net): FCNet(
          (main): Sequential(
            (0): Dropout(p=0.2, inplace=False)
            (1): Linear(in_features=1024, out_features=1024, bias=True)
            (2): ReLU()
          )
        )
        (dropout): Dropout(p=0.5, inplace=False)
      )
      (6): BCNet(
        (v_net): FCNet(
          (main): Sequential(
            (0): Dropout(p=0.2, inplace=False)
            (1): Linear(in_features=2048, out_features=1024, bias=True)
            (2): ReLU()
          )
        )
        (q_net): FCNet(
          (main): Sequential(
            (0): Dropout(p=0.2, inplace=False)
            (1): Linear(in_features=1024, out_features=1024, bias=True)
            (2): ReLU()
          )
        )
        (dropout): Dropout(p=0.5, inplace=False)
      )
      (7): BCNet(
        (v_net): FCNet(
          (main): Sequential(
            (0): Dropout(p=0.2, inplace=False)
            (1): Linear(in_features=2048, out_features=1024, bias=True)
            (2): ReLU()
          )
        )
        (q_net): FCNet(
          (main): Sequential(
            (0): Dropout(p=0.2, inplace=False)
            (1): Linear(in_features=1024, out_features=1024, bias=True)
            (2): ReLU()
          )
        )
        (dropout): Dropout(p=0.5, inplace=False)
      )
    )
    (q_prj): ModuleList(
      (0): FCNet(
        (main): Sequential(
          (0): Dropout(p=0.2, inplace=False)
          (1): Linear(in_features=1024, out_features=1024, bias=True)
        )
      )
      (1): FCNet(
        (main): Sequential(
          (0): Dropout(p=0.2, inplace=False)
          (1): Linear(in_features=1024, out_features=1024, bias=True)
        )
      )
      (2): FCNet(
        (main): Sequential(
          (0): Dropout(p=0.2, inplace=False)
          (1): Linear(in_features=1024, out_features=1024, bias=True)
        )
      )
      (3): FCNet(
        (main): Sequential(
          (0): Dropout(p=0.2, inplace=False)
          (1): Linear(in_features=1024, out_features=1024, bias=True)
        )
      )
      (4): FCNet(
        (main): Sequential(
          (0): Dropout(p=0.2, inplace=False)
          (1): Linear(in_features=1024, out_features=1024, bias=True)
        )
      )
      (5): FCNet(
        (main): Sequential(
          (0): Dropout(p=0.2, inplace=False)
          (1): Linear(in_features=1024, out_features=1024, bias=True)
        )
      )
      (6): FCNet(
        (main): Sequential(
          (0): Dropout(p=0.2, inplace=False)
          (1): Linear(in_features=1024, out_features=1024, bias=True)
        )
      )
      (7): FCNet(
        (main): Sequential(
          (0): Dropout(p=0.2, inplace=False)
          (1): Linear(in_features=1024, out_features=1024, bias=True)
        )
      )
    )
    (c_prj): ModuleList(
      (0): FCNet(
        (main): Sequential(
          (0): Linear(in_features=11, out_features=1024, bias=True)
          (1): ReLU()
        )
      )
      (1): FCNet(
        (main): Sequential(
          (0): Linear(in_features=11, out_features=1024, bias=True)
          (1): ReLU()
        )
      )
      (2): FCNet(
        (main): Sequential(
          (0): Linear(in_features=11, out_features=1024, bias=True)
          (1): ReLU()
        )
      )
      (3): FCNet(
        (main): Sequential(
          (0): Linear(in_features=11, out_features=1024, bias=True)
          (1): ReLU()
        )
      )
      (4): FCNet(
        (main): Sequential(
          (0): Linear(in_features=11, out_features=1024, bias=True)
          (1): ReLU()
        )
      )
      (5): FCNet(
        (main): Sequential(
          (0): Linear(in_features=11, out_features=1024, bias=True)
          (1): ReLU()
        )
      )
      (6): FCNet(
        (main): Sequential(
          (0): Linear(in_features=11, out_features=1024, bias=True)
          (1): ReLU()
        )
      )
      (7): FCNet(
        (main): Sequential(
          (0): Linear(in_features=11, out_features=1024, bias=True)
          (1): ReLU()
        )
      )
    )
    (classifier): SimpleClassifier(
      (main): Sequential(
        (0): Linear(in_features=1024, out_features=2048, bias=True)
        (1): ReLU()
        (2): Dropout(p=0.5, inplace=True)
        (3): Linear(in_features=2048, out_features=3129, bias=True)
      )
    )
    (counter): Counter(
      (f): ModuleList(
        (0): PiecewiseLin()
        (1): PiecewiseLin()
        (2): PiecewiseLin()
        (3): PiecewiseLin()
        (4): PiecewiseLin()
        (5): PiecewiseLin()
        (6): PiecewiseLin()
        (7): PiecewiseLin()
        (8): PiecewiseLin()
        (9): PiecewiseLin()
        (10): PiecewiseLin()
…
